…
38,"user_tz":-330,"elapsed":11777,"user":{"displayName":"akanksha shrimal","photoUrl":"https://lh3.googleusercontent.com/a-/AOh14Gj5-9IST_h6Gk-NrsbfHFXN6c1NPVKRjReYd9J54Q=s64","userId":"09190534878071493768"}},"outputId":"7cea1800-492a-44b2-a6d7-4b0dd5029078"},"source":["model3 = Model_B123(make_layers3(cfg3['B123'])).to(device) \n","learning_rate = 0.01\n","criterion3 = nn.CrossEntropyLoss()\n","optimizer3 = optim.Adam(model3.parameters(), lr=learning_rate)\n","print(model3)"],"execution_count":32,"outputs":[{"output_type":"stream","text":["Model_B123(\n","  (features): Sequential(\n","    (0): Conv2d(3, 16, kernel_size=(3, 3), stride=(1, 1))\n","    (1): BatchNorm2d(16, eps=1e-05, momentum=0.1, affine=True, track_running_stats=True)\n","    (2): ReLU(inplace=True)\n","    (3): Conv2d(16, 16, kernel_size=(3, 3), stride=(1, 1))\n","    (4): BatchNorm2d(16, eps=1e-05, momentum=0.1, affine=True, track_running_stats=True)\n","    (5): ReLU(inplace=True)\n","    (6): AvgPool2d(kernel_size=2, stride=2, padding=0)\n","    (7): Conv2d(16, 32, kernel_size=(3, 3), stride=(1, 1))\n","    (8): BatchNorm2d(32, eps=1e-05, momentum=0.1, affine=True, track_running_stats=True)\n","    (9): ReLU(inplace=True)\n","    (10): Conv2d(32, 32, kernel_size=(3, 3), stride=(1, 1))\n","    (11): BatchNorm2d(32, eps=1e-05, momentum=0.1, affine=True, track_running_stats=True)\n","    (12): ReLU(inplace=True)\n","    (13): Conv2d(32, 32, kernel_size=(3, 3), stride=(1, 1))\n","    (14): BatchNorm2d(32, eps=1e-05, momentum=0.1, affine=True, track_running_stats=True)\n","    (15): ReLU(inplace=True)\n","    (16): AvgPool2d(kernel_size=2, stride=2, padding=0)\n","    (17): Conv2d(32, 64, kernel_size=(3, 3), stride=(1, 1))\n","    (18): BatchNorm2d(64, eps=1e-05, momentum=0.1, affine=True, track_running_stats=True)\n","    (19): ReLU(inplace=True)\n","    (20): AvgPool2d(kernel_size=2, stride=2, padding=0)\n","  )\n","  (classifier): Sequential(\n","    (0): Linear(in_features=64, out_features=10, bias=True)\n","  )\n",")\n"],"name":"stdout"}]},{"cell_type":"markdown","metadata":{"id":"J64Z8g_Jqr7V"},"source":["### train "]},{"cell_type":"code","metadata":{"id":"JeJ9mIPcqrAP"},"source":["# !rm  '/content/drive/MyDrive/SEM-2/05-DL /Assignments/A3/models_saved_Q1/1_3/bw_blocks/Dropout(0.5)/cnn_block123/'*\n","# !ls  '/content/drive/MyDrive/SEM-2/05-DL /Assignm
…
