…
85,"user_tz":-330,"elapsed":2437,"user":{"displayName":"akanksha shrimal","photoUrl":"https://lh3.googleusercontent.com/a-/AOh14Gj5-9IST_h6Gk-NrsbfHFXN6c1NPVKRjReYd9J54Q=s64","userId":"09190534878071493768"}},"outputId":"4876384a-5247-4e1a-8802-0d0831d8fec9"},"source":["model3 = Model_B123(make_layers3(cfg3['B123'])).to(device) \n","learning_rate = 0.001\n","criterion3 = nn.CrossEntropyLoss()\n","optimizer3 = optim.Adam(model3.parameters(), lr=learning_rate)\n","print(model3)"],"execution_count":38,"outputs":[{"output_type":"stream","text":["Model_B123(\n","  (features): Sequential(\n","    (0): Conv2d(3, 16, kernel_size=(3, 3), stride=(1, 1))\n","    (1): BatchNorm2d(16, eps=1e-05, momentum=0.1, affine=True, track_running_stats=True)\n","    (2): Conv2d(16, 16, kernel_size=(3, 3), stride=(1, 1))\n","    (3): BatchNorm2d(16, eps=1e-05, momentum=0.1, affine=True, track_running_stats=True)\n","    (4): AvgPool2d(kernel_size=2, stride=2, padding=0)\n","    (5): Dropout(p=0.5, inplace=False)\n","    (6): Conv2d(16, 32, kernel_size=(3, 3), stride=(1, 1))\n","    (7): BatchNorm2d(32, eps=1e-05, momentum=0.1, affine=True, track_running_stats=True)\n","    (8): Conv2d(32, 32, kernel_size=(3, 3), stride=(1, 1))\n","    (9): BatchNorm2d(32, eps=1e-05, momentum=0.1, affine=True, track_running_stats=True)\n","    (10): Conv2d(32, 32, kernel_size=(3, 3), stride=(1, 1))\n","    (11): BatchNorm2d(32, eps=1e-05, momentum=0.1, affine=True, track_running_stats=True)\n","    (12): AvgPool2d(kernel_size=2, stride=2, padding=0)\n","    (13): Dropout(p=0.5, inplace=False)\n","    (14): Conv2d(32, 64, kernel_size=(3, 3), stride=(1, 1))\n","    (15): BatchNorm2d(64, eps=1e-05, momentum=0.1, affine=True, track_running_stats=True)\n","    (16): AvgPool2d(kernel_size=2, stride=2, padding=0)\n","    (17): Dropout(p=0.5, inplace=False)\n","  )\n","  (classifier): Sequential(\n","    (0): Linear(in_features=64, out_features=10, bias=True)\n","  )\n",")\n"],"name":"stdout"}]},{"cell_type":"markdown","metadata":{"id":"J64Z8g_Jqr7V"},"source":["### train "]},{"cell_type":"code","metadata":{"id":"JeJ9mIPcqrAP","executionInfo":{"status":"ok","timestamp":1618646802850,"user_tz":-330,"elapsed":1572,"user":{"displayName":"akanksha shrimal","photoUrl":"https://lh3.googleusercontent.com/a-/AOh14Gj5
…
